my_model.pth (torch, 7007 bytes, 6 tensors)

weight f4 [20, 10]
000000 89 2d 29 3e 31 75 04 be cf 1c b3 bd 1a ee e8 3d
       0.16521277 -0.1293533 -0.08745729 0.11373539
000010 33 f4 92 3e 40 d3 89 3e 6d 54 8b 3e ea ff 51 3e
       0.28701934 0.26918983 0.2721285 0.2050778
000020 e4 eb 8b bd 86 3e 51 be 7f 19 bb 3d a7 2e 29 be
       -0.06832102 -0.20434007 0.09135722 -0.16521703
000030 42 b5 59 3e e2 da 93 3e f2 89 31 be 70 b0 13 be
       0.2126055 0.28877932 -0.17337778 -0.14422774
000040 3c ec 16 bd b6 f3 84 bd 9e 69 5f 3e 98 9c 21 be
       -0.036846384 -0.06491797 0.21817634 -0.15782392
000050 25 d3 9e 3c f8 6c 0c 3e e6 42 22 3e 20 92 61 be
       0.019387791 0.13713443 0.15845832 -0.22028399
000060 7a 02 3a be fb 55 3f be e3 ba 9c be 87 74 69 be
       -0.18165007 -0.18685143 -0.30611333 -0.22798358
000070 58 ad 6d bd 83 cc b3 3d 1d b0 48 3e 0e 52 23 3d
       -0.05802664 0.08779242 0.19598432 0.039873175
000080 00 49 85 be 0c 39 8e be 23 63 4e 3e f1 0d 4f 3d
       -0.26032257 -0.27777898 0.20155005 0.050550405
000090 74 b0 97 3d ef 27 09 be 81 99 77 3e 01 24 a0 3e
       0.07406703 -0.1339414 0.24179651 0.3127747
0000a0 2b eb 42 be 1c 62 97 be fa 16 36 3d f7 6f 68 3e
       -0.19035022 -0.2956704 0.044455506 0.22698961
0000b0 64 66 8b be aa 1a 7d 3e 04 f3 93 be 06 68 b5 3c
       -0.27226555 0.24717203 -0.28896344 0.022144329
0000c0 63 d0 e0 bd 4c 22 00 3e 9b 9f 24 3e fc d0 54 bc
       -0.109772466 0.12513083 0.1607651 -0.012989279
0000d0 21 fa 9c 3e 6b 70 2e bd 86 d4 3e 3d 5b 2d 08 3e
       0.30659583 -0.04258768 0.046589397 0.13298552
0000e0 6e 2e 42 be 81 a5 14 bd d4 35 d3 bd 18 93 76 bd
       -0.18963024 -0.03629065 -0.10313001 -0.060198873
0000f0 0e cf f2 3d b1 2d 00 3b 78 25 83 bd 03 a7 55 be
       0.11855899 0.0019558484 -0.06403631 -0.20864491
000100 30 21 84 be 31 ac dc 3a f7 ef 97 be ab b0 95 be
       -0.2580657 0.0016835985 -0.29675266 -0.2923635
000110 91 31 8a 3d f5 a7 8a be 57 5f 0a be d2 ad 33 3d
       0.06747735 -0.27081266 -0.13512932 0.04386694
000120 d2 72 a6 bc 5c f9 33 bd 0c ad 96 3e 0c 5b 3b be
       -0.020318422 -0.04393898 0.294289 -0.1829645
000130 d6 ba 88 bd 8f 87 9a 3d 6d 83 9b be e9 86 84 be
       -0.06676261 0.07545387 -0.30373707 -0.25884178
000140 1d ad 83 be f4 1b 8c 3e 35 c2 f5 3d f2 7e 99 be
       -0.25718012 0.27365077 0.11999933 -0.29979664
000150 71 27 4d 3e 6b 78 83 be 2e 0c 7f 3b d3 c4 6a bd
       0.20034577 -0.2567781 0.0038917172 -0.057316612
000160 b7 d4 9f 3e f3 3c 77 be ac ba 31 3e fd ae bd 3d
       0.31216976 -0.24144344 0.17356366 0.09261892
000170 09 6b 7d bd 41 a8 43 be 6c ab 93 3e 7c 3c 37 be
       -0.061869655 -0.19107153 0.28841722 -0.17894167
000180 27 4e 97 3e e7 b2 d4 bd 6c 58 59 be d1 8a 2e be
       0.29551813 -0.103856854 -0.21225137 -0.17045142
000190 42 0c 87 3e 2f 0f a8 3c 55 de 9b bd 44 7e e0 bd
       0.2637654 0.020515053 -0.07610766 -0.10961583
0001a0 d2 fd 02 3d fc 6f fb bd 86 7d 7b bd 6b 65 0c bd
       0.031980343 -0.12277219 -0.061399005 -0.034276407
0001b0 e7 cd 6e 3d d3 9f 16 3e 04 af 38 bd 4f 20 72 3e
       0.058301833 0.14709406 -0.045088783 0.23645137
0001c0 94 c9 b5 bd b3 60 26 3e e7 40 99 3e 2a 75 97 be
       -0.088763386 0.16247825 0.2993233 -0.29581577
0001d0 0a 32 5a be 16 80 93 be f7 43 84 be ec 56 f1 bc
       -0.21308151 -0.2880866 -0.25833103 -0.029460393
0001e0 dd 7d 1b be ac 8c 8f be ef a0 58 be 5b fd e4 3b
       -0.15184732 -0.28037012 -0.21155141 0.00698821
0001f0 4a f0 8a bd 7b c1 9c be 50 13 23 3e 37 de 54 3e
       -0.06784113 -0.30616364 0.15925336 0.20787893
000200 ab e2 46 be 4c a2 86 3c 31 80 66 be 23 a6 a7 bd
       -0.19422404 0.016434811 -0.22509839 -0.08185985
000210 2f 55 11 3e 6e 79 37 bd d5 57 97 bc 93 9c 36 be
       0.14192651 -0.04479354 -0.018474499 -0.17833166
000220 d9 3a a1 be e0 48 38 3d 67 c8 23 bd 69 52 fd 3b
       -0.3149021 0.044991374 -0.03998604 0.0077307713
000230 3a 74 b3 bc 64 c2 8f 3e 99 f4 1d be 5d f7 28 3e
       -0.021906007 0.28077996 -0.15425338 0.16500612
000240 dc fb 1d be 44 e1 e0 bb 6e 06 2d be c7 fb 6d 3e
       -0.15428108 -0.0068627913 -0.16896984 0.23240577
000250 72 1b a3 3d 78 45 57 be 74 5e 70 be 27 fc 6b 3e
       0.07964219 -0.21022594 -0.23473531 0.23045407
000260 e5 29 6f be 67 7d f1 bd 54 a0 ae 3c c0 63 53 be
       -0.23355825 -0.11791497 0.021316685 -0.2064352
000270 11 d6 a4 3b 5d 34 cc bd 00 31 90 3e 5f ec 2e be
       0.0050304015 -0.09970925 0.28162384 -0.17082356
000280 c6 b6 bd bd d1 2b 8d be 56 c9 fb ba 80 9e 01 3e
       -0.09263377 -0.27572492 -0.0019209783 0.12658119
000290 2b d2 08 be 6c c1 a9 bd 38 be 92 bd ef e3 6a 3d
       -0.13361423 -0.082888454 -0.071651876 0.05734628
0002a0 4d 3a 77 bc d0 f4 89 be 5e 4f 99 be 0e 5e 47 3e
       -0.015089584 -0.2694459 -0.29943365 0.19469473
0002b0 0f f5 e5 3d bc 44 7c be 29 c1 67 3e e4 55 30 be
       0.11228382 -0.24635595 0.22632279 -0.17220265
0002c0 09 1a 3d 3e 62 e0 84 3d 5f 1a 74 3e d8 06 96 be
       0.18466963 0.0648811 0.23838185 -0.29302096
0002d0 8d a4 6d 3e 3f d6 9b bd 12 35 3d 3e 9f fe 2f be
       0.23207302 -0.076092236 0.18477276 -0.17186974
0002e0 74 1d 62 3d 58 4d 9f 3e 9e 0d 8c 3e 5c 54 79 3e
       0.05520387 0.31113696 0.2735414 0.24348587
0002f0 e3 be 45 bd f8 2b d0 bb 07 22 58 be 7c 4f b3 bd
       -0.048277747 -0.0063528977 -0.2110673 -0.08755395
000300 03 e5 a0 3e 8d 5e 1a be 40 ba 53 3e d8 3b c4 3d
       0.31424722 -0.15075131 0.20676517 0.09581727
000310 5f 3b 24 be ec 28 29 be 41 5f 81 3e fb fb 91 3e
       -0.16038273 -0.16519517 0.25267985 0.28512558

bias f4 [20]
000000 4c 37 37 be 9a 1e 82 3e 40 b7 6f 3e bd b5 6c be
       -0.17892188 0.25413972 0.23409748 -0.23116203
000010 80 ed d0 bd aa 45 80 3e 0b 20 92 3e 93 03 27 3d
       -0.102015495 0.2505315 0.28540072 0.040774893
000020 34 de 4d bd c9 79 f1 bb 87 b5 fa bd e7 38 99 be
       -0.050260738 -0.0073692543 -0.12241655 -0.29926226
000030 aa 3f 35 be 85 47 3b 3e c2 c3 82 be 3e cd 92 3e
       -0.17700067 0.18289001 -0.25539976 0.28672212
000040 b3 22 98 3e e8 81 a7 3d 77 32 9b 3e 8f 33 96 bc
       0.29713973 0.081790745 0.3031194 -0.018335132

weight f4 [30, 20]
000000 2a 0f d7 bd 9b f0 54 3e 2e 56 21 3e 59 44 b5 bd
       -0.10500939 0.20794909 0.15755531 -0.08850927
000010 a2 3e 12 be d3 a6 a1 bd 00 e6 38 be ae 93 ce 3b
       -0.14281705 -0.07893147 -0.18056488 0.006304226
000020 66 0f 46 3d b1 df a0 bd 3a 17 a8 3d 2b a4 01 bb
       0.04835453 -0.07855166 0.08207555 -0.001978169
000030 9f 0c 22 be 25 d7 37 be 8e f1 0f be d9 fd 26 be
       -0.15825127 -0.17953165 -0.1405699 -0.16307773
000040 74 de 3e 3e b6 5a a7 bd 47 7c 15 be b8 8c 8a bd
       0.18639547 -0.081715986 -0.1459819 -0.06765121
000050 87 d9 a7 bd bd e8 15 bb 13 af 8c bd ff b3 33 be
       -0.08195787 -0.0022874319 -0.0686933 -0.17549132
000060 5f c3 34 bd b2 1f 11 be 2b ee 56 bd 35 88 b8 3d
       -0.044131633 -0.14172247 -0.05247323 0.090103544
000070 8f 7f f7 3d a1 44 12 3e 7b 64 63 3e e6 27 5d 3e
       0.12084877 0.14283992 0.22206299 0.21597251
000080 e6 15 ed 3d f9 b4 1b be 1e 45 c4 3d 9e c0 9d bc
       0.115764424 -0.15205754 0.095834956 -0.019256886
000090 75 9e 17 3e e0 2e 29 3e 38 ee 25 be 2d 7c 8c 3d
       0.1480654 0.16521788 -0.16204154 0.06859622
0000a0 b2 66 5f be ea b9 dd 3d 59 b2 12 3e 56 76 e1 3c
       -0.21816519 0.10826476 0.14325847 0.027522247
0000b0 68 e0 2d 3e 67 26 14 be dc 95 52 be 7f 4e 0e 3e
       0.16980135 -0.14467774 -0.2056498 0.13897131
0000c0 af 06 27 be c5 fc cc bc 46 83 47 be 94 64 5c bc
       -0.16311143 -0.025022874 -0.1948367 -0.013451714
0000d0 b2 ca 08 3d f6 85 71 bc 9f dd 45 3e 1d fc 96 3d
       0.03339643 -0.014741411 0.19322823 0.073723055
0000e0 03 c0 7d 3d 0e 53 11 bd 70 b1 10 3e 11 69 a8 bd
       0.061950695 -0.035479598 0.14130187 -0.08223165
0000f0 cc bb 54 be c9 e3 b0 3d 7d c3 25 3e eb 4a 0a be
       -0.20774764 0.086371966 0.16187854 -0.13505141
000100 8e 71 df bd e6 92 36 3e 3d a8 83 bd 5c 3e 20 be
       -0.10910331 0.17829475 -0.06428573 -0.15648788
000110 33 81 5b be ad 0e 4f 3e 0b 2d 11 be d5 9b 5d 3e
       -0.21436004 0.20220442 -0.14177339 0.21641476
000120 81 a8 31 3e 0f c3 c2 bc bf a7 28 3e 4d bf ba 3d
       0.17349435 -0.023774652 0.1647024 0.09118519
000130 3e cb 9f 3d d7 19 d6 bd b4 88 eb 3d f4 34 83 bd
       0.07802437 -0.10454147 0.115006834 -0.064065844
000140 fe 42 43 bd bc 23 3f bd a4 4e 6e bc be 66 50 be
       -0.04767131 -0.04666494 -0.014545117 -0.20351693
000150 ac 00 02 3e db f0 9b 3c dd bb ac bc 1a f9 10 3e
       0.12695569 0.019035747 -0.021085674 0.14157525
000160 82 06 43 3d 30 27 3b be 69 8e d6 bd 4e e7 be 3d
       0.04761363 -0.18276668 -0.10476381 0.093214616
000170 41 ce 26 be ac 1f 58 3e 99 c5 10 bd 5e 64 53 bd
       -0.16289617 0.21105832 -0.035344694 -0.05160939
000180 93 79 40 3e 1c 16 0a be 50 a6 78 bd bf 59 88 3d
       0.18796377 -0.13484997 -0.060705483 0.06657743
000190 49 40 d4 bd 51 a2 1d bb a5 21 10 be 7c 85 00 be
       -0.10363824 -0.0024053047 -0.14075334 -0.1255092
0001a0 55 79 d4 bd f8 57 e2 3d 74 ab 39 3d 58 7d 61 be
       -0.10374705 0.11051935 0.045329526 -0.22020471
0001b0 6f 42 a6 bb ad 7a b7 3d f2 1d 21 be 64 b0 15 3e
       -0.0050738375 0.089589454 -0.1573408 0.14618069
0001c0 63 f0 58 be 30 c5 24 bb e6 ae 3d 3b 94 30 e5 3c
       -0.2118545 -0.0025141947 0.002894336 0.027977265
0001d0 7f d0 3e 3d 59 60 c8 3c ad ae 4d be fd d8 da 3d
       0.046585556 0.024460005 -0.20086165 0.106859185
0001e0 87 1d 60 be 11 c7 f4 bc 15 06 fd bd 45 42 fb bd
       -0.21886264 -0.029880079 -0.12354676 -0.12268499
0001f0 72 22 5b 3d a2 1e 19 bd 19 0c f9 3d c0 2d 15 bd
       0.053499646 -0.03738273 0.121605106 -0.036420584
000200 74 36 2b 3d 2b f6 0d be 37 65 60 3e 92 b9 54 3e
       0.041799977 -0.13863437 0.2191361 0.20773914
000210 89 60 8d bd 73 de 1a be 63 d5 2a be 05 a4 8b bb
       -0.06903178 -0.1512392 -0.16682963 -0.004261496
000220 6b c5 ed bd 98 ee e9 bd fe f9 f4 3d 0f 15 24 3e
       -0.1160992 -0.11422461 0.11961745 0.16023658
000230 b5 11 46 3e a4 2b 1b be ec 6e e5 bd 05 35 b5 bc
       0.19342692 -0.15153366 -0.11202797 -0.022120008
000240 bb 45 0e 3e a6 0f 54 3e 9d bd 34 3b 96 9f f4 bd
       0.13893788 0.20709094 0.0027578839 -0.11944501
000250 72 d4 d9 bd 05 59 64 be 10 2c 97 bd 9a 49 1d 3d
       -0.10636224 -0.22299583 -0.07381451 0.03840027
000260 b4 20 65 3d 1e ac b6 bc 40 a1 8a 3d 16 cf a6 bc
       0.05593939 -0.022298869 0.06769037 -0.020362418
000270 9b 78 5d 3e 35 bf 4f be 23 ae ba 3c 15 99 07 3d
       0.21628039 -0.20287783 0.022788113 0.033104975
000280 a4 8d 12 3b 77 1f 10 3e 09 84 19 3e 8d 6f dd bd
       0.0022362256 0.14074503 0.14991774 -0.10812292
000290 4f 2d d5 bc 55 bf 57 be 74 88 d4 3d 05 a5 50 3e
       -0.026022581 -0.21069081 0.10377589 0.2037545
0002a0 7f 93 f5 b9 c2 6a ec 3b b6 5a d3 bd 3f e4 f4 3d
       -0.00046839935 0.007214875 -0.10320036 0.11957597
0002b0 0d ec f7 bc 82 11 b5 3d 25 c1 1c 3c 4c 97 1c be
       -0.030263925 0.0884123 0.009567534 -0.1529209
0002c0 95 7c e9 bd 82 9a eb bd f7 ba 06 3e 9b 8a 63 3e
       -0.11400715 -0.115040794 0.13157259 0.22220843
0002d0 a3 e6 1d 3e 99 e4 02 bd a3 45 90 bc 9f c9 dd 3c
       0.15420012 -0.03195629 -0.01761133 0.02707368
0002e0 03 7e 12 be 15 38 bf 3d 2e 22 17 3d 6f 22 0c be
       -0.14305882 0.09336869 0.03689783 -0.1368501
0002f0 fe 29 6b 3c a2 5a 13 3e fd 7e 29 be 69 5e 64 3e
       0.014353273 0.14390042 -0.16552348 0.2230164
000300 bd ca 90 bc 52 c4 1a be 41 fa cd 3d 58 e0 d3 3d
       -0.017674798 -0.15113953 0.10057498 0.103455245
000310 e8 85 21 be f7 d8 dc bd 7b b4 39 3c 63 05 4e be
       -0.15773737 -0.1078357 0.011334534 -0.20119242
000320 13 4d 4e 3d 3b b4 5b be 73 50 f8 3d 5e 47 29 3e
       0.050366472 -0.21455471 0.121247195 0.1653113
000330 2b 24 24 3e a1 5e 40 bd e9 e0 e0 3b cc 01 f9 bd
       0.16029422 -0.046965245 0.006862749 -0.12158546
000340 f3 76 23 be 71 40 fd bd 81 8e 45 be 11 1d 5c 3e
       -0.15963344 -0.12365807 -0.19292642 0.21495463
000350 1a cf 2f be 67 58 57 be 67 e2 02 3e 5e 3b 27 3d
       -0.17168847 -0.21029817 0.12781678 0.0408281
000360 e8 d3 1f be 1d 3b d5 3d 74 e8 33 3e 9d fa 0d 3c
       -0.1560818 0.104116656 0.17569143 0.008665708
000370 c6 f6 00 3e aa 8b e2 3d f4 ad 43 be a7 1b ae bc
       0.12594137 0.11061795 -0.19109327 -0.02125342
000380 e2 f8 31 3e 02 b7 7c 3d 83 f2 00 3d 2f f2 9b 3d
       0.17380098 0.061697967 0.031481277 0.07614552
000390 13 cd 2e be 13 e7 37 3e 67 32 2c bc b2 f3 23 be
       -0.17070417 0.17959242 -0.010510064 -0.16010931
0003a0 90 51 39 3d aa b3 53 3d 64 bf 08 be 5a 01 1e bc
       0.0452438 0.051685013 -0.1335426 -0.009643877
0003b0 2d ac 56 be 58 81 b9 bd f1 f2 62 be 3e a9 12 3e
       -0.20964117 -0.090578735 -0.22162987 0.14322373
0003c0 7d 16 b1 3b 2d 14 fa bd 4d 61 3e be c9 0f da bd
       0.005404292 -0.122108795 -0.18591805 -0.10647542
0003d0 7b a7 52 be 45 ff 3c be f4 dd 40 be 20 7a 48 3e
       -0.20571701 -0.18456753 -0.18834668 0.19577837
0003e0 5b d5 05 3e b1 0f 55 be 32 a8 ce 3d 5b 50 3e be
       0.1306967 -0.20806767 0.100906745 -0.1858534
0003f0 56 e6 53 3c c4 8a 63 3e 18 3b 4e 3e 34 aa 5f be
       0.012933334 0.22220904 0.2013973 -0.21842271

bias f4 [30]
000000 2d 5a 3f 3e 05 42 91 3d 94 a9 8a bd 45 f8 10 bd
       0.18686743 0.0709267 -0.06770626 -0.03539302
000010 4f 3c 3a be 45 c6 f4 bd 3e 64 ea bd 9b 81 88 3c
       -0.18187068 -0.119518794 -0.11444901 0.016663363
000020 8c af a2 3c 3b 81 19 be d2 18 38 3d 19 14 66 bd
       0.019859098 -0.14990704 0.044945545 -0.05617151
000030 d7 51 28 3d be bc 1f 3e df 73 a0 bd ee c2 19 bd
       0.041093674 0.15599343 -0.07834601 -0.037539415
000040 0b c4 a5 bc 4f cc de bd c6 07 03 be 44 12 82 3d
       -0.020235082 -0.108788125 -0.12795934 0.0635114
000050 fc a9 b9 3d 0d c0 37 bc be ea 22 be e8 e1 38 be
       0.09065625 -0.011215222 -0.1590986 -0.18054926
000060 16 61 2e 3e fe df 0e 3e c0 4e 90 3d e1 55 e5 3d
       0.17029223 0.13952634 0.0704627 0.11198021
000070 c0 d3 a5 3c 0c b5 b5 3d
       0.020242572 0.088724226

weight f4 [5, 30]
000000 0e 3c 34 3e b3 8f ff bd f3 29 9f 3c ea 92 17 be
       0.17601034 -0.1247858 0.019429183 -0.14802137
000010 80 84 e8 3d 70 af c8 3d 41 12 bd bd 10 99 cc 3c
       0.11353397 0.09799087 -0.09231997 0.02497533
000020 11 ef cb bd 76 25 08 3e 6a 4f f1 bd 33 4d 04 be
       -0.09957708 0.1329554 -0.11782725 -0.12920074
000030 70 1a 5e 3d fa 82 09 3e c8 41 45 bd c1 9a 94 3d
       0.05422443 0.1342887 -0.048158437 0.072560795
000040 23 17 f9 bd 26 a9 1d 3d 4a c6 cd 3d a6 4a 4c bd
       -0.12162616 0.03849139 0.10047586 -0.049875878
000050 9c 8b e4 bd 93 e2 1f bd f3 67 0f bd c7 5a 07 3e
       -0.11159441 -0.039034437 -0.035011243 0.13218223
000060 b0 c2 bd bd d2 fc 2d be e4 32 e1 bd 14 ae 1d 3e
       -0.09265649 -0.16990975 -0.10996035 0.15398437
000070 28 95 33 3e 12 7a 8f 3d 13 85 2b be a5 86 25 bd
       0.17537367 0.07005705 -0.16749983 -0.04041161
000080 95 c5 9f bd a5 5c f3 3d fd 9c 28 3e 4d 2e 39 bc
       -0.07801358 0.11882905 0.16466136 -0.011302543
000090 92 09 d9 bd 53 a7 39 bd 03 62 3a 3e d7 1d 04 3e
       -0.105975285 -0.04532559 0.18201451 0.12902008
0000a0 c9 2a 20 bc b1 fc 48 3c 87 0e 0a bc 6d 0d fc bd
       -0.009775826 0.012267278 -0.008426315 -0.12307248
0000b0 8e 8f 28 be 7a 3c 89 3d c6 99 89 bd 5e f8 cc 3d
       -0.16461012 0.06700988 -0.06718783 0.1000831
0000c0 dd f1 90 3d c2 a0 15 3e 6d cf 9e bd 1c e7 19 3e
       0.07077382 0.14612105 -0.07754407 0.15029567
0000d0 08 75 9f 3b bd f3 1f 3e 15 63 08 be 0d ef 0d 3e
       0.004866246 0.15620323 -0.13319047 0.13860722
0000e0 09 0e 65 3d 43 7d 9c 3d db 41 aa bd 84 2c 07 3e
       0.055921588 0.07641079 -0.08313342 0.13200575
0000f0 c4 5d 5b 3d 00 db 26 3e 5d ce 8c bd 08 43 2a 3d
       0.05355622 0.1629448 -0.06875298 0.041567832
000100 42 43 c3 bd 5e f5 7a 3d 51 70 a5 3d 5f 83 ba 3d
       -0.09534313 0.061269157 0.08078063 0.09107088
000110 18 74 e1 bd b1 ea 2a 3e 78 07 04 3e ed dd c0 bd
       -0.11008471 0.1669109 0.12893474 -0.09417329
000120 92 6d df 3c 1f e8 fe bc 77 d8 0f 3e d0 6a 2f be
       0.027273927 -0.031116543 0.14047419 -0.1713059
000130 76 99 0d be d6 46 37 be e5 a2 ab bc 58 f8 85 bd
       -0.13828072 -0.17898116 -0.020951698 -0.065415084
000140 cf 4f 0f 3e 99 2e 7c bc 04 5f 17 be a3 da 43 bd
       0.13995288 -0.015391969 -0.1478234 -0.04781593
000150 be 0f 05 be ab 7f d1 3d 51 e5 54 bd dc ce e6 3d
       -0.12994286 0.10229429 -0.051976506 0.11269924
000160 1c 31 97 bd 99 36 7d 3a b4 c7 58 bd e6 d4 3c bd
       -0.07382414 0.000965932 -0.052924827 -0.046101473
000170 7c 40 e9 3c 79 54 ba 3c 62 e2 5b 3d a5 8f 04 be
       0.028473131 0.022745358 0.053682692 -0.12945421
000180 f0 6e 36 3e 59 e0 02 be f5 ff a9 bd db 65 46 3c
       0.17815757 -0.12780894 -0.08300773 0.012109245
000190 ee cd 2a be fb 80 25 3e 0d 44 25 be 35 bc 38 be
       -0.16680118 0.16162483 -0.1613924 -0.18040545
0001a0 7a a5 16 be 00 0a 0b 3d 87 26 10 be 13 95 18 3e
       -0.14711562 0.033945084 -0.14077197 0.14900617
0001b0 a8 78 29 be 1d 70 b4 3d dd b0 52 bd 8e ee 9e bd
       -0.16549933 0.088104464 -0.0514382 -0.077603444
0001c0 18 a7 92 b9 9d 00 35 3e 35 ac 79 bd 39 ab 87 3c
       -0.00027971785 0.17676015 -0.060955245 0.016561138
0001d0 a6 b0 90 3a b0 32 de bd e3 cc d8 3d 8b 97 13 be
       0.0011038973 -0.108495116 0.10585954 -0.14413278
0001e0 95 cd 27 be 11 21 0c be 28 97 a1 3c 6f 12 f1 bd
       -0.16387017 -0.13684489 0.019725397 -0.11771094
0001f0 80 be 16 3d cb 5b a3 bd 1e 85 65 3d 2c 31 87 3d
       0.03680277 -0.079764925 0.056035154 0.06601176
000200 30 3a d8 3d 91 fb b5 bd 6c 5b f3 ba 41 bc 4c 3d
       0.105579734 -0.08885873 -0.0018566675 0.04998422
000210 ca 3c 8b 3d 31 5c 66 bd 48 b2 30 3d 9f d4 3f bd
       0.06798704 -0.056240264 0.043138772 -0.04683363
000220 9c cc 1b bd 64 4f f1 3d 9b 5f 34 be 12 21 9c bd
       -0.038036928 0.11782721 -0.17614596 -0.07623495
000230 09 d5 fc bd 48 4f 09 bd ce e5 db bd e8 f6 f6 3d
       -0.12345321 -0.033522874 -0.10737191 0.120588124
000240 b2 99 1f be 11 9f 68 3d 3c fb c2 bb be c9 03 be
       -0.15585974 0.056792323 -0.0059503596 -0.12869927
000250 00 ff 0f be 91 78 2d be
       -0.14062119 -0.16940524

bias f4 [5]
000000 5d 3c 2d bb be bd b8 bd d8 b1 9d bc f0 92 0f be
       -0.0026433684 -0.090205655 -0.019249842 -0.14020896
000010 2a 13 c3 3d
       0.0952514
