my_model.pt (torch, 6047 bytes, 6 tensors)

layer1.weight f4 [20, 10]
0	0xbe8bb5e5	-0.27287212
1	0xbe2b163a	-0.16707698
2	0x3e3c3e81	0.18383218
3	0x3e4134c0	0.18867779
4	0x3dded88e	0.10881148
5	0x3e598c97	0.21245037
6	0xbe8773e7	-0.26455614
7	0x3e825db8	0.25462127
8	0xbe031b51	-0.12803389
9	0xbe471189	-0.19440283
10	0x3d90351a	0.07041378
11	0xbce624de	-0.028093752
12	0xbcc8e29f	-0.024522124
13	0x3e4bc31b	0.19898646
14	0x3d0f5698	0.03499469
15	0xbe25fa84	-0.16208845
16	0x3c0c9c35	0.0085821645
17	0xbe9316c2	-0.287283
18	0x3e8da9ac	0.27668512
19	0xbe1d7679	-0.15377225
20	0x3e55f41c	0.20893902
21	0xbe9447e8	-0.2896111
22	0x3d611965	0.05495586
23	0x3e6655b7	0.22493635
24	0x3dc72c5e	0.09725259
25	0x3e8fd96e	0.28095573
26	0xbc448132	-0.011993693
27	0xbe880d69	-0.2657273
28	0x3e094dd0	0.1340859
29	0x3e8b313e	0.27186006
30	0xbdc90475	-0.09815303
31	0xbe0210b5	-0.12701686
32	0x3e3cb9f6	0.18430313
33	0xbde61574	-0.112345606
34	0xbca21fb5	-0.01979051
35	0x3e38046e	0.1797044
36	0xbe0c5c12	-0.13706997
37	0xbdf1f147	-0.11813598
38	0x3cf40916	0.029789489
39	0xbc368112	-0.011139171
40	0xbe9f1faf	-0.3107886
41	0x3de8bcf8	0.11364168
42	0xbea19223	-0.31556806
43	0x3e4868da	0.19571248
44	0x3e0786ca	0.13235012
45	0xbe7bd201	-0.24591829
46	0x3e5ae184	0.2137509
47	0x3e42d7f3	0.1902769
48	0x3d9c41d8	0.07629746
49	0xbda442f1	-0.080205806
50	0xbe485d87	-0.19566928
51	0x3e373c42	0.1789408
52	0x3d2d42fa	0.042300202
53	0xbdefaa1e	-0.11702369
54	0xbda791dc	-0.08182117
55	0xbe1a0800	-0.15042114
56	0x3d928bc8	0.071555674
57	0x3e986f36	0.29772347
58	0x3e4fa139	0.20276345
59	0xbe69521e	-0.22785231
60	0xbe57a3b6	-0.21058545
61	0x3d27e377	0.04098841
62	0xbdf71950	-0.12065375
63	0x3e99c84b	0.30035624
64	0x3dace2f6	0.08441727
65	0xbe48c38a	-0.19605842
66	0x3bc2026b	0.0059206984
67	0xbe2c5979	-0.16831006
68	0xbe86c400	-0.2632141
69	0xbe562b85	-0.20915039
70	0xbdc02ac3	-0.09383156
71	0xbd96f12d	-0.073702194
72	0x3d917ee3	0.0710428
73	0xbe7c6410	-0.24647546
74	0x3e184e66	0.14873657
75	0xbda31802	-0.079635635
76	0x3e996573	0.29960212
77	0xbd22a449	-0.039707456
78	0xbe8bc865	-0.27301326
79	0x3e9d08d3	0.30670795
80	0x3e07cce8	0.1326176
81	0x3e1b5a81	0.15171243
82	0xbda9009a	-0.08252068
83	0xbe20f741	-0.1571932
84	0xbd8a66d5	-0.06757895
85	0xbe7988a3	-0.24368529
86	0xbe1d3dcf	-0.1535561
87	0x3e0b1b4a	0.13584629
88	0x3e9bed0c	0.3045429
89	0xbe3026ee	-0.1720235
90	0x3e0e70ea	0.13910261
91	0x3d6c3b29	0.057673607
92	0xbe3b8e14	-0.18315917
93	0xbe294e63	-0.16533808
94	0x3d4fc129	0.05072132
95	0xbe40537a	-0.18781844
96	0x3e350dae	0.17681
97	0x3e5c8454	0.21534854
98	0xbe2d43b2	-0.16920355
99	0xbd979f66	-0.0740345
100	0xbe131425	-0.14363153
101	0xbe9a222a	-0.3010419
102	0xbe8afc7c	-0.27145755
103	0x3e91d3a5	0.28481784
104	0x3ea1d0bb	0.3160456
105	0x3e299777	0.16561686
106	0xbde19dc7	-0.11016422
107	0xbdb5264a	-0.08845194
108	0xbe286616	-0.16445193
109	0xbce21c12	-0.027601276
110	0x3cb9566b	0.022624215
111	0x3c129b7e	0.008948205
112	0xbe669195	-0.22516473
113	0x3e33cbb6	0.17558178
114	0xbdf9d441	-0.12198687
115	0xbda6d99e	-0.08146976
116	0xbe98deb3	-0.29857406
117	0xbd9403d0	-0.0722729
118	0x3e8dccf2	0.27695423
119	0x3e77f3ea	0.2421414
120	0x3e55802d	0.20849676
121	0xbe186bb8	-0.14884841
122	0xbe49de6d	-0.19713755
123	0x3e57e536	0.21083531
124	0xbe655f1e	-0.22399566
125	0x3e705fb1	0.23474003
126	0x3e91ff67	0.2851517
127	0x3e8d2ae0	0.27571774
128	0x3d9783c9	0.07398183
129	0x3e6a7f86	0.22900209
130	0x3cde77e9	0.027156787
131	0xbdc882f1	-0.097906
132	0x3e200d02	0.15629962
133	0xbe57f512	-0.2108958
134	0xbd42109b	-0.047379117
135	0xbdf76b00	-0.120809555
136	0xbe3cab44	-0.18424708
137	0xbdbd72ec	-0.09250435
138	0x3e3d0928	0.18460524
139	0xbe9bc663	-0.30424795
140	0x3e0d948b	0.13826196
141	0x3e417249	0.18891253
142	0x3e35f3d6	0.17768797
143	0x3e6b3055	0.22967656
144	0x3c13030f	0.008972897
145	0xbe300b42	-0.17191795
146	0x3d5b858c	0.053594157
147	0xbe9cab56	-0.3059947
148	0xbe909250	-0.28236628
149	0xbe42212e	-0.1895797
150	0xbe6f00fc	-0.2334022
151	0x3e78808c	0.24267787
152	0x3d393d7a	0.045224644
153	0x3e653370	0.22382903
154	0x3d34d810	0.044151366
155	0x3cf897f8	0.030345902
156	0x3e715bf3	0.23570232
157	0xbe92fa13	-0.28706416
158	0x3e5b39b6	0.21408734
159	0xbe0add47	-0.13560973
160	0x3e2c0649	0.16799273
161	0xbe4af0ad	-0.19818373
162	0x3daf03af	0.085456245
163	0x3d8da7bc	0.069167584
164	0x3e4349c5	0.1907111
165	0xbd521db6	-0.051297866
166	0xbdc7b430	-0.09751165
167	0xbe82d554	-0.2555338
168	0x3dfe6ed6	0.12423484
169	0xbdd88d74	-0.10573855
170	0xbe935c84	-0.2878152
171	0xbd74c6f1	-0.059760038
172	0xbdeb0982	-0.11476423
173	0x3d4fdc47	0.050747182
174	0xbc74842e	-0.014924092
175	0x3e7d083c	0.24710172
176	0x3dcf03fa	0.1010818
177	0x3e4cfa01	0.20017244
178	0xbe182add	-0.14860101
179	0xbe7d6b8f	-0.24748062
180	0x3ca85c58	0.020551845
181	0xbe8c1dd3	-0.27366504
182	0x3e4b62d5	0.1986192
183	0xbb6270fa	-0.0034552203
184	0xbe4696f8	-0.19393528
185	0xbe2f3f6e	-0.1711404
186	0x3e262908	0.1622659
187	0x3dad53e5	0.08463267
188	0x3e26b5ee	0.16280338
189	0xbe968b86	-0.29403323
190	0x3e8d9ed6	0.27660245
191	0x3b669966	0.0035186647
192	0xbd8362bc	-0.064153165
193	0xbe0b3e06	-0.13597879
194	0x3e5ff716	0.218716
195	0x3e90eda3	0.28306302
196	0x3d152deb	0.036420744
197	0x3e94bc20	0.29049778
198	0x3e9e699f	0.30939957
199	0x3e97fd13	0.29685268

layer1.bias f4 [20]
0	0x3dda17b6	0.10649054
1	0x3e9bb970	0.30414915
2	0xbe9707b4	-0.29498065
3	0x3e4ed81f	0.20199631
4	0x3e8a3c76	0.26999253
5	0x3e48f336	0.19624028
6	0xbe3be8c9	-0.18350519
7	0x3d26da8b	0.040735763
8	0x3e8903d3	0.2676073
9	0x3d8d1919	0.068895526
10	0x3d7edbfe	0.06222152
11	0x3e257354	0.16157275
12	0xbe57961d	-0.21053357
13	0x3e45b4f2	0.19307306
14	0xbe416c19	-0.18888892
15	0xbe8dda4d	-0.27705613
16	0xbe66d6a6	-0.2254282
17	0xbe4544f6	-0.19264588
18	0xbcb81a08	-0.02247335
19	0xbc1e0f15	-0.0096471505

layer2.weight f4 [30, 20]
0	0xbe0d2fd5	-0.13787778
1	0xbe5471f0	-0.20746589
2	0x3d83dcad	0.06438575
3	0x3e42e825	0.19033869
4	0x3e53ce0b	0.20684068
5	0x3dda6a03	0.106647514
6	0xbd8a7cb1	-0.06762064
7	0xbdc4b8cb	-0.09605559
8	0xbda66303	-0.08124354
9	0xbd037085	-0.03208973
10	0xbc806181	-0.015671493
11	0x3e40bf1e	0.18822905
12	0x3d034a97	0.032053556
13	0xbe065ef7	-0.13122164
14	0xbc568680	-0.013093591
15	0xbd37ebc4	-0.044902578
16	0x3e0f1f27	0.13976727
17	0x3ddd0704	0.10792354
18	0x3cfb3729	0.03066595
19	0xbd25c7c9	-0.040473733
20	0xbda28f79	-0.079375215
21	0xbe55ebd9	-0.2089075
22	0xbda2608f	-0.07928573
23	0xbe62e96d	-0.22159357
24	0x3c549d79	0.0129769975
25	0xbe340146	-0.17578611
26	0xbc1c30cf	-0.009533121
27	0xbe04f13a	-0.12982646
28	0x3cbd1f1f	0.023086129
29	0xbdedb0b8	-0.11605972
30	0xbd02e85f	-0.031959888
31	0x3e2083d8	0.15675294
32	0xbe28acd7	-0.16472183
33	0x3e14f0d1	0.14544989
34	0x3e4292e9	0.19001354
35	0xbcba72b7	-0.022759778
36	0xbdb4c326	-0.08826284
37	0x3e1423b1	0.1446674
38	0xbd2049b1	-0.039132778
39	0x3dfd9f5d	0.12383912
40	0x3e21474e	0.15749857
41	0x3cb19e8e	0.02168205
42	0x3e0d3cfd	0.13792796
43	0x3e3f0249	0.18653215
44	0x3e27ab66	0.16373977
45	0x3e0cb5d7	0.13741241
46	0xbe3284d5	-0.17433484
47	0x3e11ae9f	0.14226769
48	0x3b997626	0.004683274
49	0x3e1e0fb8	0.15435684
50	0xbe5ec2dc	-0.2175402
51	0x3d6b8a74	0.057505086
52	0x3de90f21	0.11379839
53	0xbdd59e69	-0.10430605
54	0xbd8e8229	-0.0695842
55	0xbd14d1c3	-0.036332857
56	0x3d87e63e	0.06635712
57	0x3dc7a4e2	0.09748246
58	0xbde8514d	-0.11343632
59	0xbe2ee214	-0.1707843
60	0xbdf201d4	-0.11816755
61	0xbda1f85c	-0.07908699
62	0x3d10221d	0.035188783
63	0xbe55fa47	-0.20896254
64	0xbe0ae632	-0.13564375
65	0x3de2b37f	0.110693924
66	0xbd10a7f8	-0.035316437
67	0xbe19237c	-0.14954942
68	0xbe292644	-0.16518503
69	0x3d487721	0.048941735
70	0xbc56dfd5	-0.013114889
71	0xbc95a35e	-0.018266376
72	0xbc348da6	-0.0110201
73	0xbd460ffd	-0.04835509
74	0x3e319af3	0.17344265
75	0x3e104982	0.14090541
76	0x3e4d5700	0.20052719
77	0xbe52dcee	-0.2059209
78	0xbe592867	-0.21206819
79	0xbe08457f	-0.1330776
80	0x3e59b299	0.21259536
81	0xbdf42b12	-0.119222775
82	0xbe10d7e0	-0.1414485
83	0xbe0216e3	-0.12704043
84	0xbe457913	-0.19284467
85	0x3d874818	0.06605548
86	0xbe030a98	-0.1279701
87	0xbe45ee1a	-0.1932911
88	0x3cd64425	0.02615554
89	0xbb7674e5	-0.0037606296
90	0xbe12a681	-0.14321329
91	0xbe601688	-0.21883595
92	0xbe079f81	-0.1324444
93	0x3e33be1a	0.17552987
94	0xbc963cee	-0.0183396
95	0xbe351f84	-0.17687804
96	0x3c642c5b	0.013926591
97	0x3c31d53a	0.01085406
98	0x3ca1a05e	0.01972979
99	0x3d556cc1	0.05210567
100	0xbe3a251a	-0.18178216
101	0x3d221aa0	0.039576173
102	0xbe3ce78e	-0.18447706
103	0xbbf1c4cc	-0.0073781963
104	0x3e310fcb	0.17291181
105	0x3de308b0	0.110856414
106	0xbd5a5ae0	-0.05330932
107	0xbdbdc529	-0.09266121
108	0xbe0b51b9	-0.13605393
109	0xbccfd41b	-0.025369694
110	0xbe1748b2	-0.14773825
111	0x3e03e57b	0.12880509
112	0xbdb46bf1	-0.08809651
113	0x3e022c38	0.1271218
114	0xbe61ed98	-0.22063291
115	0xbde308bf	-0.110856526
116	0xbda4287e	-0.08015536
117	0x3d7877f2	0.060661264
118	0xbe3aa0be	-0.18225381
119	0x3e22b8ae	0.15890762
120	0xbe50193b	-0.20322125
121	0x3c90942e	0.017648783
122	0x3d2d0686	0.04224255
123	0x3dcec469	0.10096056
124	0x3d5dc262	0.054140456
125	0x3c8bed79	0.01708101
126	0x3e5d9435	0.21638568
127	0xbdd1cc62	-0.10244061
128	0x3cd9919a	0.026558686
129	0xbe2de172	-0.16980532
130	0xbdcf18dd	-0.10112164
131	0x3db534b2	0.088479415
132	0x3d5d3bc6	0.054012083
133	0x3dcd58c5	0.10026697
134	0x3d8cc25c	0.068730086
135	0xbdd6c99c	-0.10487673
136	0x3dd2755f	0.10276293
137	0x3e62bae9	0.22141613
138	0x3df986ca	0.12183912
139	0xbc742d48	-0.014903374
140	0x3dd88f00	0.1057415
141	0xbda69b4e	-0.08135091
142	0x3da76db1	0.08175219
143	0x3dcf4760	0.101210356
144	0xbd9421a8	-0.07232982
145	0xbe405615	-0.18782838
146	0x3e4283bb	0.18995564
147	0x3e2813f9	0.16413869
148	0x3e25dac9	0.16196741
149	0xbe075a0f	-0.13217948
150	0x3dcd4250	0.10022414
151	0x3cad754a	0.021174092
152	0x3d2700c1	0.040772203
153	0xbe55b12c	-0.20868367
154	0x3e3efc8b	0.18651025
155	0x3e3c561b	0.18392222
156	0x3e0cf1a7	0.13764058
157	0x3c4d49bf	0.0125297895
158	0xbd3c4d2e	-0.04597204
159	0x3da9ba5a	0.08287497
160	0xbe2b8fd7	-0.1675409
161	0xbdba4cf8	-0.09096712
162	0xbcddbbc2	-0.027067069
163	0xbd4eebb9	-0.05051777
164	0xbdbe0092	-0.092774525
165	0xbe2c92c5	-0.16852863
166	0x3d9e85a1	0.077403314
167	0x3e0a9121	0.13531925
168	0x3ddc56a5	0.10758714
169	0x3d45df28	0.04830852
170	0x3e23dc03	0.16001897
171	0xbe55e740	-0.20888996
172	0xbdd318ff	-0.10307502
173	0x3b3018eb	0.002687032
174	0x3e0f5e66	0.14000854
175	0x3a5c70fd	0.00084091706
176	0x3da625f8	0.08112711
177	0xbe592ea2	-0.21209195
178	0xbc06a700	-0.008218527
179	0xbe0a4cd5	-0.13505872
180	0xbe3e8f1f	-0.18609284
181	0x3da76686	0.08173852
182	0xbe614d30	-0.22002101
183	0x3e1d6922	0.15372136
184	0xbdd64e40	-0.10464144
185	0x3e2beb36	0.16788945
186	0xbe214843	-0.15750222
187	0xbe463f37	-0.19360052
188	0x3e037fa7	0.12841664
189	0xbbcb218d	-0.006199068
190	0x3e4ff0a3	0.2030664
191	0xbd322ce1	-0.04349983
192	0x3d4bb247	0.049730565
193	0xbc102fab	-0.008800427
194	0xbc331873	-0.010931122
195	0xbdb9a8db	-0.0906541
196	0x3ce61b33	0.028089141
197	0xbd9676bb	-0.07346865
198	0x3d037789	0.03209642
199	0xbe525c29	-0.20542969
200	0x3e24a2ac	0.1607768
201	0x3db076f2	0.08616437
202	0x3e1f8876	0.155794
203	0x3d538e84	0.051649585
204	0x3e2bbd0f	0.16771339
205	0xbe4dd51f	-0.2010083
206	0xbe482e55	-0.19548924
207	0x3da3ec34	0.080040365
208	0xbdbf5fe6	-0.09344463
209	0x3e279ead	0.16369124
210	0x3e07e82d	0.13272162
211	0x3e452f4a	0.1925632
212	0x3e17285c	0.1476149
213	0x3e4b2b63	0.1984077
214	0x3db3a967	0.08772545
215	0xbde9a443	-0.114082836
216	0xbe0e183c	-0.13876432
217	0x3e3df813	0.18551664
218	0xbd86c67d	-0.065808274
219	0x3deca913	0.11555686
220	0x3e3c02a1	0.18360378
221	0xbcdc8915	-0.026920835
222	0xbe2201fd	-0.15821071
223	0x3d004b0f	0.03132158
224	0x3d120e3e	0.035658114
225	0xbd498273	-0.04919667
226	0xbe00b3ec	-0.12568635
227	0x3e21070b	0.15725343
228	0xbda5d488	-0.08097178
229	0x3e603021	0.2189336
230	0xbe2069fd	-0.15665431
231	0xbdb84ae2	-0.08998658
232	0xbe15b2ef	-0.14619039
233	0x3d2b1c59	0.04177508
234	0x3e387ad1	0.180156
235	0x3adde348	0.0016928697
236	0x3e131efe	0.14367291
237	0xbde94435	-0.113899626
238	0xbe602e3c	-0.21892637
239	0xbe4d3bee	-0.20042393
240	0xbe5c9232	-0.21540144
241	0xbd8f5497	-0.06998556
242	0xbdb6aeb8	-0.08920044
243	0xbe1bc4f9	-0.15211858
244	0xbe28816f	-0.16455625
245	0xbdfdb7e4	-0.1238859
246	0xbe0f45c3	-0.13991456
247	0x3e481850	0.19540524
248	0xbe3ab3be	-0.18232629
249	0x3dcef6f6	0.10105698
250	0xbe289a3f	-0.1646509
251	0xbe200ccb	-0.1562988
252	0xbc9c0509	-0.01904537
253	0x3e49209a	0.19641343
254	0x3dd614c8	0.104531825
255	0xbdc4b0a9	-0.09604008

layer2.bias f4 [30]
0	0x3d9206b6	0.07130186
1	0x3dfcc4cd	0.12342224
2	0xbe1c9e25	-0.15294702
3	0x3de17a4e	0.11009656
4	0x3c66a2ed	0.0140769305
5	0xbca27826	-0.019832682
6	0xbcc37233	-0.023858165
7	0xbe480ed1	-0.19536902
8	0x3d6dc779	0.05805156
9	0x3dfd2ea0	0.12362409
10	0xbde71794	-0.11283794
11	0xbe3b847e	-0.1831226
12	0xbcfef8ab	-0.031124434
13	0xbdc9c732	-0.098524466
14	0xbdb50d09	-0.08840377
15	0x3df92588	0.12165362
16	0x3da7dbee	0.08196245
17	0x3d6ccd1e	0.057812802
18	0xbd9bff0b	-0.07617005
19	0xbc8ba4cd	-0.017046357
20	0xbe3605f7	-0.17775713
21	0x3dde5d86	0.10857682
22	0xbe29e007	-0.16589366
23	0xbdef0859	-0.11671514
24	0xbd4654cd	-0.048420716
25	0xbc33a46d	-0.010964495
26	0x3cbf225e	0.023331817
27	0xbd6a2b55	-0.05717023
28	0x3d0c6a6a	0.03428117
29	0x3d1ff6ca	0.039053716

layer3.weight f4 [5, 30]
0	0x3c8f4a07	0.017491354
1	0x3b80aa07	0.003926519
2	0x3dfe2779	0.124098726
3	0x3cd07147	0.02544464
4	0xbd83076e	-0.063979015
5	0xbd7fc402	-0.062442787
6	0x3e051b9f	0.12998818
7	0x3de9d4df	0.11417555
8	0xbdaf5a42	-0.08562137
9	0xbd09b023	-0.033615243
10	0x3d9ed775	0.07755939
11	0xbe1818ff	-0.14853285
12	0x3e2db525	0.16963632
13	0xbdf29895	-0.11845509
14	0x3d6d33bd	0.05791067
15	0x3dfdd01c	0.12393209
16	0xbdf9438f	-0.12171089
17	0x3e1528d3	0.14566354
18	0x3b93e699	0.0045135734
19	0x3de314b7	0.110879354
20	0x3deff4fd	0.1171665
21	0x3e0f533a	0.13996592
22	0x3cd09864	0.02546329
23	0x3c4fa15f	0.012672751
24	0xbdf392bb	-0.11893221
25	0x3c887532	0.016657446
26	0xbe160009	-0.14648451
27	0xbd33b1cd	-0.043870736
28	0x3cfdffc0	0.03100574
29	0xbc83572e	-0.016032781
30	0xbde13fe3	-0.109985135
31	0x3c87a0dd	0.016556198
32	0x3d67d451	0.056598965
33	0xbdc13d1d	-0.094354846
34	0xbd80d50e	-0.06290637
35	0x3dcfa73c	0.10139319
36	0x3e0cfaf9	0.13767613
37	0x3cae7737	0.02129708
38	0x3e290bbb	0.16508381
39	0xbc848f33	-0.016181564
40	0x3e06c5e3	0.13161425
41	0xbe39b038	-0.18133628
42	0x3e1a1e23	0.15050559
43	0xbe205015	-0.15655549
44	0x3e34db01	0.17661668
45	0x3e078618	0.13234746
46	0xbe232978	-0.15933788
47	0x3e19ce8f	0.15020202
48	0x3d91a23e	0.07111023
49	0x3b94a6ab	0.00453647
50	0xbe31a267	-0.17347108
51	0x3e2d54d7	0.16926895
52	0xbe1b4760	-0.15163946
53	0x3d0c1c00	0.03420639
54	0xbd1ef5de	-0.038808696
55	0x3db268f4	0.087114245
56	0xbdd34f6e	-0.103178844
57	0xbd7a269a	-0.06107197
58	0x3dd32ea8	0.10311633
59	0x3e2a7fce	0.16650316
60	0x3d99cb3c	0.07509467
61	0xbce61329	-0.028085308
62	0x3df29211	0.11844266
63	0xbcc94b10	-0.024571925
64	0xbde2f198	-0.110812366
65	0xbdf0d0d2	-0.11758579
66	0xbe226a38	-0.15860832
67	0x3c3aa4c2	0.01139182
68	0x3e04cad2	0.12967995
69	0xbdd344d4	-0.10315862
70	0xbd92ab5a	-0.07161589
71	0x3e0fd1df	0.14044903
72	0x3dfc0798	0.12306136
73	0x3e09e61b	0.13466685
74	0xbd73f6d1	-0.059561554
75	0x3d46ccda	0.048535205
76	0x3e168480	0.14698982
77	0x3c93f28f	0.018059997
78	0x3d945976	0.07243626
79	0xbd8b033f	-0.067877285
80	0x3c5c30f5	0.013439407
81	0xbc12ea48	-0.00896699
82	0x3dd6e8bf	0.104936115
83	0x3e036745	0.12832363
84	0x3e294871	0.1653154
85	0xbe202849	-0.15640368
86	0xbe2f28d1	-0.17105414
87	0xbd9e2a92	-0.077229634
88	0x3e2d3b0c	0.16917056
89	0x3df57cfd	0.1198673
90	0xbc0e4f66	-0.008685922
91	0xbde75efb	-0.11297413
92	0xbcb16b64	-0.021657653
93	0x3e2c2f98	0.1681503
94	0x3e0faed2	0.14031532
95	0xbd4319fa	-0.047632195
96	0x3de216f0	0.11039531
97	0xbe29cc57	-0.16581856
98	0xbd2915ce	-0.04128056
99	0x3d17f7ef	0.037101682
100	0x3d2153a0	0.03938639
101	0xbdfb0dbb	-0.12258478
102	0xbd08c250	-0.033388436
103	0x3daf9f45	0.085753
104	0x3e2f2418	0.17103612
105	0xbe158e50	-0.14605069
106	0xbced8a71	-0.028996678
107	0x3de2d759	0.110762306
108	0xbd455ea1	-0.04818595
109	0x3d272361	0.040805224
110	0x3e1077f7	0.14108263
111	0x3e087114	0.13324386
112	0x3cda7de2	0.026671354
113	0xbda6ef3b	-0.08151098
114	0x3dbc8199	0.09204406
115	0xbe0c0919	-0.13675345
116	0x3d8024b1	0.06256998
117	0xbe1a5a89	-0.15073599
118	0x3de4278c	0.111403555
119	0x3db23eaa	0.087033585
120	0xbd0915d1	-0.03346807
121	0xbe0d586e	-0.13803264
122	0xbdaaeb0e	-0.083456144
123	0xbe19cf15	-0.15020402
124	0x3d6e30f8	0.05815217
125	0xbe07a9ab	-0.13248317
126	0xbded0373	-0.115729235
127	0xbe215c41	-0.15757848
128	0xbd71b16f	-0.059007104
129	0xbd91ca8e	-0.07118712
130	0xbc34a408	-0.011025436
131	0x3cbbc580	0.022921324
132	0xbda9c831	-0.082901366
133	0xbd859a83	-0.065236114
134	0xbdc1ad6b	-0.09456905
135	0x3e051bf6	0.12998948
136	0xbe13cfe9	-0.1443478
137	0xbe16c1e8	-0.14722407
138	0x3e0f6c72	0.14006212
139	0x3ba6b8ea	0.0050879614
140	0x3d73dbc6	0.059535764
141	0xbc7d0b54	-0.015444595
142	0x3d3f078b	0.046638053
143	0xbe39c6f0	-0.18142295
144	0x3d026e20	0.031843305
145	0xbd11fdb0	-0.035642326
146	0xbd9366b2	-0.07197322
147	0x3d710c4b	0.058849614
148	0xbbdd9b47	-0.0067628953
149	0xbe2831fe	-0.1642532

layer3.bias f4 [5]
0	0x3e319589	0.173422
1	0xbc036835	-0.00802045
2	0x3ce46591	0.027880462
3	0xbe1e3fff	-0.154541
4	0x3e212a59	0.1573881
